MRI-Feature-Regression/1fq3ts8a/checkpoints/epoch=49-step=2350.ckpt (torch, 12092 bytes, 3 tensors)

linear.weight f4 [1, 512]
00000000: a410 933c de77 a83d 2d07 1cbd 8b0c ba3c
00000010: 0f75 c23c 7517 f63c a707 1a3d 9f78 683b
00000020: 8f78 c8bc 9b17 c63c c112 3cbc f0fc 2a3c
00000030: dba9 e7bc fc30 0cbd 71a6 6f3c 839a 8e3c
00000040: 308e d6bc aae1 1fbc 1da5 2e3d 74eb c5bc
00000050: ac84 02bc fea9 713b c1d1 b13c 71a7 b7bc
00000060: 346e 883c 9026 06bb 1f90 f0bb 344e a1bc
00000070: f662 f6bc 0594 003d 84d2 00bd d84b 2b3d
00000080: e946 39bc 347a 3e3d b806 13bc 4462 b0bc
00000090: 46b2 e9bc 75ef 12bd 1bc6 7bbc 8ae6 d93c
000000a0: 2d60 b23b 0c90 d83c 59ed 96bc 1bd6 a23c
000000b0: 27b7 05bd 9ed9 26bd 2242 043d 8de9 783c
000000c0: a229 aebb d7bc 8bba 4af0 1d3c b8ea e23c
000000d0: fdef 17bd 4bce 183d a88d dbbc 2a9f 9ebb
000000e0: 87ba b33d f8de 02bd 8088 05bd 6d8c 7f3c
000000f0: d373 1fbd e462 79bc 7cd2 ccbb 53cb c3bc
00000100: 99e3 89bc 3c82 473d 1e1b aa39 25d9 39bd
00000110: 377d 173c 2c5e b73c bda0 77bc e45b a4bc
00000120: d30a ee3c 3b85 08bb 5e11 b6ba 16c6 2a3d
00000130: bab9 063d d050 21bd 1a91 be3c 0b7e 4a3c
00000140: d946 de3a ea14 d6bc 8c85 93bb 613d 8abc
00000150: 1286 9fbc 9235 8cbc 1cb9 e0bc f5e0 a53c
00000160: dc57 cf3b 6ef6 803c 98af d43c 3090 cabc
00000170: c512 833c 0e6a ee3c 3577 1e3d 4196 65bc
00000180: 7232 16bd 82e4 0c3b 9774 3b3d 95e3 3ebd
00000190: 53a0 d2bc 2c11 50bc b447 4f3c f5a7 b6bb
000001a0: bc74 24bd b277 acbc 68e6 09bd 2536 c63b
000001b0: cd62 0d3d d76e 90bc 5528 a2bc 9ec1 fd3c
000001c0: fc92 493d e3a7 f7bc e30c fa3c bef4 27bc
000001d0: dcd3 033c 0349 06bd 3bc6 f83c aaf6 c53b
000001e0: 3f38 f2bc 94e1 dcbc 04ca 54bc 29c2 efbc
000001f0: de53 1f3c a3ee 2cbd c67e 27bb e448 9aba
00000200: 60f6 a9bc b9ee fa3b ac10 ab3c 07da b8bc
00000210: fd99 923b 40f0 dbbc d20a 82bc 468d 32bd
00000220: 1a91 2d3d 9369 763c b03f 16bc 0380 073d
00000230: 97fd 343d da65 f23c 44aa 8a3c 2707 26bd
00000240: cbce 67bd 4fa2 fa3b 39d7 093d bf43 963c
00000250: 4049 aebc 6ba5 bfbb 10cc 903c 5e8e 143d
00000260: 4f4e c53c a9e0 aa3c 20a4 4a3a e442 62bb
00000270: f5ff c2bc e6b3 44bd 36d4 a43a 0df7 deba
00000280: 65bc 643c 2163 663c 56c7 1c3b abe9 93bd
00000290: e50a f13b b72c 223b 1829 a73c 8893 e5bc
000002a0: 7d76 c23c ee62 31bc ac7c 883b 40c6 143b
000002b0: 7070 ff3b 7e80 12bd 89f2 293d 2b6b db3d
000002c0: e7a6 18bd e3ea 88bc 9f9b 4dbb 420d b73c
000002d0: f0f8 103b 2a89 b93c b865 0ebd 2217 8cbc
000002e0: 13ed cabc 5cfc cfbc 85a8 15bd be2c bd3c
000002f0: 50f7 13bd 07a7 72bb 5c8b f9bc 7a8a 9b3c
00000300: 9e11 f6ba 7ed4 dcbc 5f21 943c c848 32bd
00000310: ee2b 013c 6331 cebc b1c1 a8bc 4894 c73c
00000320: c8e2 a4bb 1184 c0bc df14 373d b1d5 eeba
00000330: 311c 723c 01fb 843c bbaa c1bb 29cf 063d
00000340: 5bb0 0cbd 09a3 2c3d 6851 6b3c db3c 033d
00000350: 42bd 913c 77b4 b0bc 9755 a1ba 04a1 d93a
00000360: bbd0 843d 4f23 133d c104 09bc 6305 27bb
00000370: def2 abbc a463 cabb 47f0 a0bb 3cf6 38bc
00000380: 271f 23bc a922 29bb 6570 8f3c b332 9ebb
00000390: 7cd7 e8bc 697f abbc b984 3c3c d22f 53bd
000003a0: 6a20 fdbc 50f9 c63c 4591 b6bc baf0 6ebc
000003b0: 3942 e63c f06d b8bc 0c66 a8bc 28f8 f43a
000003c0: 36ab 473d b5e1 28bc d625 b9ba d2c4 903c
000003d0: 5648 273d 7829 91bc 3a5c 6c3d 3a2f 49bd
000003e0: 33ea 25bd bcd3 1c3d 102d 5cbc b44a 7dbb
000003f0: 1fcf 443c 822d b13c e545 933b afd2 bebc
0.01795227 0.08225988 -0.03809278 0.02271106 0.023737459 0.030040482 0.037604954 0.0035472286
-0.02447155 0.024181178 -0.011479081 0.010436282 -0.028279236 -0.034226403 0.014627085 0.017407661
-0.026190847 -0.009758392 0.042637933 -0.024160124 -0.007966202 0.0036875005 0.021706464 -0.02241871
0.016654111 -0.0020469762 -0.0073413993 -0.01969061 -0.030076485 0.031391162 -0.031450763 0.041820377
-0.01130841 0.04650326 -0.00897377 -0.021531232 -0.02852739 -0.035872895 -0.015367056 0.026599187
0.005443594 0.026435874 -0.018423723 0.019877484 -0.03264537 -0.04073488 0.03228963 0.015192402
-0.0053150216 -0.0010661137 0.009639809 0.027699813 -0.037094105 0.03730611 -0.026800945 -0.004840751
0.08775812 -0.03195092 -0.03260088 0.015597445 -0.038928818 -0.015221331 -0.0062506776 -0.023900663
-0.01683216 0.048708186 0.0003244513 -0.0453731 0.009246162 0.022383772 -0.015114007 -0.020063348
0.029057896 -0.0020831365 -0.0013890674 0.041692816 0.032891966 -0.03938371 0.02326255 0.012359153
0.001695837 -0.02613302 -0.004502004 -0.01687497 -0.01947311 -0.017115388 -0.027432017 0.02024887
0.0063276123 0.015742507 0.025962636 -0.024726957 0.016000161 0.029103305 0.038687903 -0.014012874
-0.036669202 0.0021498506 0.045765486 -0.046603758 -0.025711214 -0.012699407 0.012651373 -0.0055742213
-0.04015039 -0.021053169 -0.033667 0.006048935 0.034518052 -0.017630978 -0.019794622 0.030976113
0.04921244 -0.030231422 0.030523723 -0.010251222 0.008046117 -0.032784473 0.030367961 0.0060413675
-0.029567836 -0.026963033 -0.012987617 -0.029267387 0.009724585 -0.04221977 -0.002555774 -0.0011770991
-0.020747364 0.0076578525 0.020881973 -0.022564901 0.0044739232 -0.026847959 -0.0158743 -0.04359176
0.042374708 0.015039819 -0.009170458 0.033081066 0.044187155 0.029589582 0.016926892 -0.040534165
-0.056593698 0.007648743 0.033652518 0.01834285 -0.021275163 -0.005848577 0.01767543 0.036268584
0.024085192 0.02085908 0.0007730145 -0.0034524733 -0.02380369 -0.048023127 0.0012575451 -0.0017010883
0.013960932 0.01406172 0.0023922524 -0.07222303 0.007356035 0.002474589 0.020405337 -0.02802445
0.02373814 -0.010826809 0.0041652527 0.0022701174 0.007795386 -0.03576707 0.041491065 0.107138
-0.037268545 -0.016713565 -0.0031373275 0.022345189 0.0022121035 0.022648413 -0.034764975 -0.017100874
-0.024771249 -0.025388889 -0.036537666 0.023092624 -0.036124527 -0.0037025826 -0.03046196 0.01898693
-0.0018773561 -0.026956793 0.018082319 -0.04352644 0.007884009 -0.025170034 -0.020600172 0.024362698
-0.0050319172 -0.023500474 0.04469764 -0.0018221644 0.014777229 0.01623297 -0.0059102452 0.032912407
-0.034347873 0.04214767 0.0143626705 0.03204046 0.01779044 -0.021570427 -0.0012308833 0.0016603773
0.06485125 0.035922345 -0.00836295 -0.0025485388 -0.020989832 -0.006176429 -0.004911456 -0.011289176
-0.009956158 -0.0025808013 0.017509649 -0.004827821 -0.028423063 -0.020934777 0.011506253 -0.051559277
-0.030899245 0.024288803 -0.022286067 -0.014583761 0.02810775 -0.02251336 -0.020556472 0.0018689679
0.048747264 -0.010307719 -0.0014125656 0.017671976 0.04084047 -0.01771997 0.05770514 -0.049117304
-0.040506553 0.038287863 -0.013438478 -0.0038649263 0.012012272 0.021628145 0.004494416 -0.023293821

exp_avg f4 [1, 512]
00000000: 96d7 57c2 97c7 b3bc 363c 34c3 6abc 4cc2
00000010: c79f 14c3 d404 8ec3 6ba4 10c2 328d 7ec1
00000020: 8718 42c3 e6fe bac3 1e2d aec3 858e eec2
00000030: e80d e8c0 9fa8 8ac0 1967 ddc2 07c2 3ec3
00000040: 5a34 0cc1 f03e b1c2 0000 0000 5a9e 02c3
00000050: 4f87 9cc2 2074 3ec2 e996 6cc2 8953 0cc2
00000060: 6367 61bd d550 81c3 0afe efbf 4a81 ecc2
00000070: 2667 48c3 2c6e b4bf d640 8dc2 ace4 49c2
00000080: 4c6c f2c2 b313 56bf 860f d2c1 e3c5 47be
00000090: 72c9 8ec3 6edf 68c3 4110 32c3 53b9 87c3
000000a0: 05c7 0cc1 236d 3cc0 596f e9c2 ee18 0ec3
000000b0: 5acf 49c3 bf01 90c1 6b2d 32c2 836c a9c4
000000c0: 0253 43c1 36ce f8c0 5c15 43c0 5f6e af3c
000000d0: 4ee9 6fc3 3f06 80c2 69bc 3fc1 2db5 77c2
000000e0: 2917 80bf fdcb 49c4 d51e 9fc3 a02a 86c2
000000f0: c153 0ec3 bd9c a4c0 46d8 55c3 6360 eec2
00000100: 7db7 c6c2 74df c0c0 da42 1cc0 cfae 70c2
00000110: 5750 cbc1 aa70 67c4 05f2 17c3 7dfe 86c1
00000120: 534f a4c1 eb19 2ec3 3202 fbc2 dd51 10c2
00000130: 25ef 23c1 4ac1 cec2 f81f a9c1 3be7 7ec2
00000140: 17b4 77bf 7e12 66c1 8c71 36c2 794b cec1
00000150: ae58 80c0 1d60 23c2 8936 43c2 7d9d 8bc1
00000160: 24cc 09c2 c8f0 10c3 1453 09c2 24bc 5bc3
00000170: 7ee0 8ac3 e065 10c3 e311 21c0 65e1 b1c3
00000180: 88c6 72c1 937f 0240 b0f7 40c3 217b 21c0
00000190: c74d ddc1 6de2 bbc2 dc93 5ac2 a45d 1cc4
000001a0: 6327 dec1 8567 3fc0 d56c e8c2 3741 89c1
000001b0: 54fa 69c3 6105 68be 5902 66c3 d98d 92c3
000001c0: 6910 66c1 b9e5 dfc2 b71d 7ec2 847c 513e
000001d0: f683 65c3 5961 1fc2 a695 57c2 fab5 4bc2
000001e0: 8100 05c3 bbb2 86c0 dc62 6bbf e2ab 74c2
000001f0: 9a6b 2cc3 6983 58c3 c44c f23d 9180 c6c2
00000200: 5da9 99c1 68c9 353e 96a8 6bc0 2e42 e0c0
00000210: 7408 223d 103a 27c3 7664 61c2 7acf 8fc0
00000220: 71d3 1ec0 c61f 8fc1 8364 19c4 dea6 b8c1
00000230: 8d01 0bc3 0000 0000 cee9 e0c0 7f76 e5c2
00000240: 8789 dec0 5498 d6c1 2a92 01c4 7291 0dc4
00000250: 8a97 21c3 a93b 98c3 a62b 5fc3 5dd8 52c0
00000260: 2fdf e5c3 a6bc d2c4 c22a cac1 3746 c6c1
00000270: db9c d6c3 bfca 18c1 bda0 bdc1 3fd0 08c4
00000280: 31bd b33f 4aa0 62c3 7fb0 ccc1 e914 0abf
00000290: 4300 a4c3 fb43 2bbe ebad 90c0 0dca a1bf
000002a0: 04dd 89bf 6bc8 32c0 9b63 81c3 2daf 56c2
000002b0: 5600 81c3 cdd4 27c4 5579 b1c2 51eb f5bc
000002c0: 5634 9fc2 0000 0000 005d 9fc1 ba8a 4dc3
000002d0: d2cd 07c3 9bda 84c3 3cdf 99c2 d27d 7dc2
000002e0: 28b5 36c0 f0ea a2c3 1555 03c1 2b6c 80c2
000002f0: 557b 2cc3 13b5 00c2 4800 70c3 a536 e6c2
00000300: b22c 51c2 10f3 e4c1 63bb 99c1 7762 3bc2
00000310: a8fd 2bc3 e7fd 31c0 87a8 963d 3313 44c3
00000320: fb03 32c3 6749 adc1 0445 32c0 3627 95c3
00000330: 4ff9 98c0 c9c4 4abf fa07 dbc3 e7d0 adc3
00000340: e81c 0dc3 f908 0ec2 3f95 7bc2 aeac 08c4
00000350: b53b d4c0 6cc1 c6c0 09e5 7cc2 a2bf 1dc2
00000360: 2b67 f8bd 149d 99c1 5b4b 9ac2 3a1c f3c2
00000370: 1268 47c3 74ff f3c3 650e af3e ec37 4ec2
00000380: e826 02c3 2913 65c3 d0c6 0ac3 249f 3ac3
00000390: 9cc1 e2c2 d63a c8c1 1703 9cc3 52cd 1841
000003a0: ab04 95c4 a6a1 9cc1 df97 4b3f 74bd e4bf
000003b0: 9ea5 2ac3 fb8f 4fc1 6aff 13c2 e8bc ddc0
000003c0: 0bae b9c0 6ccd 97c2 4ee2 25c3 f2bd c0c2
000003d0: a46c 5dc3 5d84 9cc0 55f2 87c0 9d38 c3c3
000003e0: aeb7 89c4 d445 8ec3 5839 98c2 932d 17c3
000003f0: 44b9 84c2 8d35 7fc4 638e f0c2 c8a2 8fc2
-53.960533 -0.021945758 -180.2352 -51.184 -148.62413 -284.03772 -36.160564 -15.9094715
-194.09581 -373.9914 -348.35248 -119.27836 -7.2516975 -4.3330836 -110.70136 -190.75792
-8.762781 -88.622925 0.0 -130.61856 -78.264275 -47.613403 -59.147373 -35.081577
-0.055030238 -258.6315 -1.8749402 -118.25252 -200.40292 -1.4096122 -70.62663 -50.473312
-121.21152 -0.8362381 -26.25758 -0.19509082 -285.5738 -232.87277 -178.06349 -271.44785
-8.798589 -2.9441612 -116.717476 -142.09738 -201.80997 -18.000853 -44.544353 -1355.391
-12.207766 -7.775172 -3.0481787 0.021414934 -239.91135 -64.0122 -11.983499 -61.92693
-1.0007068 -807.1873 -318.24088 -67.08325 -142.32716 -5.144133 -213.84482 -119.188255
-99.358376 -6.027277 -2.4415803 -60.17071 -25.414228 -925.7604 -151.94539 -16.874262
-20.538733 -174.10124 -125.50429 -36.079945 -10.245885 -103.37752 -21.14061 -63.72581
-0.9675917 -14.379515 -45.610886 -25.786852 -4.010825 -40.84386 -48.803257 -17.451899
-34.449356 -144.94055 -34.33113 -219.73492 -277.75385 -144.39795 -2.5167167 -355.7609
-15.17347 2.0390365 -192.96753 -2.5231402 -27.662977 -93.94224 -54.644394 -625.46313
-27.769232 -2.9906933 -116.21256 -17.156843 -233.97784 -0.22658302 -230.00917 -293.1082
-14.379006 -111.94868 -63.52902 0.20457655 -229.51547 -39.845066 -53.89614 -50.92771
-133.00197 -4.2093177 -0.9194772 -61.167854 -172.42032 -216.51332 0.11831048 -99.25111
-19.207697 0.17752612 -3.6821647 -7.0080786 0.039558843 -167.2268 -56.348106 -4.4940767
-2.4816554 -17.890514 -613.5705 -23.081478 -139.00606 0.0 -7.0285406 -114.73144
-6.954288 -26.824379 -518.2838 -566.2726 -161.59195 -304.4661 -223.1705 -3.2944558
-459.74362 -1685.8953 -25.270878 -24.784285 -429.22543 -9.549499 -23.703485 -547.25385
1.4042112 -226.62613 -25.58618 -0.53938156 -328.00204 -0.16725151 -4.52123 -1.2639786
-1.0770574 -2.7934825 -258.77817 -53.67107 -258.00262 -671.325 -88.73698 -0.030019434
-79.60222 0.0 -19.92041 -205.5419 -135.80399 -265.70786 -76.936005 -63.37287
-2.854807 -325.83545 -8.208272 -64.211266 -172.48177 -32.17683 -240.0011 -115.10673
-52.293648 -28.618683 -19.216497 -46.846157 -171.99084 -2.781122 0.07356363 -196.075
-178.01555 -21.660841 -2.7854624 -298.30634 -4.780433 -0.7920652 -438.06232 -347.63205
-141.11292 -35.508762 -62.89575 -546.6981 -6.6322885 -6.211111 -63.223667 -39.43714
-0.12129053 -19.201698 -77.14718 -121.55513 -199.40652 -487.99573 0.3419067 -51.55461
-130.15198 -229.07484 -138.77661 -186.62164 -113.37814 -25.028728 -312.02414 9.550127
-1192.1459 -19.57893 0.7952861 -1.7870317 -170.64694 -12.9726515 -36.999428 -6.92931
-5.8024955 -75.901215 -165.884 -96.37099 -221.42438 -4.8911576 -4.2483315 -390.4423
-1101.74 -284.54553 -76.112 -151.17802 -66.36185 -1020.83673 -120.2781 -71.81793

exp_avg_sq f4 [1, 512]
00000000: bb47 0548 bf2d 5b3b 65ae 5c49 8354 6348
00000010: 305f 1e49 abfa 854a 9928 1048 001c 6446
00000020: 7848 e049 a1e6 8b4a 1f48 884a 50cb 3a49
00000030: f479 1a46 5a29 6944 a27b d048 885a 9949
00000040: 9ce0 6b45 ead3 cc48 0000 0000 fe30 0049
00000050: f177 9b49 fd28 0848 d609 8848 f3e7 0147
00000060: 3855 a13e 191c 8749 665b a944 4319 b648
00000070: ee2a 8f49 1145 3042 7aac 0c48 0025 a747
00000080: 0c15 d048 6f12 3444 03c3 9946 76d1 eb40
00000090: bc1d 0f4a 78b1 9249 ee0b 4249 4cae e849
000000a0: b3c3 2446 8184 7243 f9b5 e648 a2b0 7649
000000b0: 0f2f da49 7793 bc46 b981 0d47 7113 6f4c
000000c0: f71b 9f45 e1bb 5246 e3ff cf44 f92a 7845
000000d0: e485 8549 1672 6448 e199 9746 70f4 6a48
000000e0: b430 f342 f243 a14b 6904 504a e1c4 aa47
000000f0: 3b4e 3249 94b6 1844 26f3 b649 4cca 9b48
00000100: 96e9 a648 68ff 3045 9551 2143 126f 2548
00000110: e835 7447 a94a 054c 0c43 4849 6d51 1546
00000120: f849 d546 e71e 8749 ee85 e548 c73d 2547
00000130: 7259 8b46 aa4d f848 97e4 ad47 efc4 1b47
00000140: fa65 b642 98fe ce45 e4d8 f447 c716 0746
00000150: 51f3 ad43 7e44 9e47 9ed5 3448 4a79 c246
00000160: 5772 5347 7b14 2e49 0547 f046 9344 ca49
00000170: d883 324a eee4 2e49 2d77 4844 92f5 7c4a
00000180: eb39 9d46 014f 0146 57c3 7049 6e50 0f43
00000190: 4928 6047 6da5 0649 7a2e 3248 f129 234b
000001a0: 5bca f147 f1b4 8343 2b52 af48 44ab 1e46
000001b0: c500 274a e052 6744 0e03 be49 56b3 454a
000001c0: b79c 7c46 235b c348 fc13 6a48 ef16 223f
000001d0: 1fc4 a449 b6d9 ed47 57d7 4247 5317 eb46
000001e0: a1bb 3b49 9ee1 0f45 f048 7a45 1722 2748
000001f0: 9bce a149 8ca0 f049 328e 0f41 0b1a 0a49
00000200: 8851 d445 9e5b c944 a571 2743 b03b cb44
00000210: 6636 3e41 3e1c 9249 d1e2 d947 26dc 9244
00000220: 1007 c843 f71a f245 f47e 264b fcd9 d046
00000230: 9c15 1449 0000 0000 fbc8 3847 5895 c648
00000240: be52 b545 f5dc 2c48 3664 fb4a 10c7 3c4b
00000250: 6a7c a349 4190 0b4a fce8 ef49 736a 1745
00000260: 521f c14a b90c bc4c 1adc 7047 4743 4447
00000270: 82b3 9b4a ed88 a945 8abd 4847 29ee ee4a
00000280: 6927 2b45 77a6 fd49 d071 a746 afac b641
00000290: 97fd 354a 4b0a e042 8a69 8645 b55c 9643
000002a0: ec8d 3144 4d9d 1443 f2f8 8f49 30ac e947
000002b0: 9880 c249 0a9d 1b4b 6f7e 0649 f2dd 8d3b
000002c0: d235 2b48 0000 0000 bf79 c545 26fc 8749
000002d0: a294 8349 dd0c 044a 105d 7048 a291 c247
000002e0: 256b 3c45 00c8 934a 1210 1246 ffd6 4148
000002f0: bf3b 8d49 fc40 2847 388e a249 b6e0 bb48
00000300: 952b 2848 926a 0d47 2182 8c45 dd33 5248
00000310: 9287 4e49 d7d2 4b44 74ba ad43 18d3 9349
00000320: f89b 3b49 9d21 8d47 d6a6 1644 4117 6f4a
00000330: fa60 5646 7efa 2345 1cbd 154b 49ae 754a
00000340: 6ac0 0e49 14e9 3847 d0ec 9048 9d97 214b
00000350: f41c 1646 8132 2445 8937 7048 8c54 0d48
00000360: cd74 d842 41aa a345 e92b 8748 ca40 5b49
00000370: 3315 1b49 65b5 054b 614c 2042 bfb7 a647
00000380: ab7e e948 2008 cb49 43e8 5449 d053 b349
00000390: bd67 b748 f2d6 0b47 c094 544a 7fdb 9546
000003a0: 40b8 204c db8d 4e46 ccba c844 67e9 d244
000003b0: 7d5f b648 a250 ad45 2356 f147 2d24 1845
000003c0: de45 1545 2087 8448 b846 e949 63c4 db48
000003d0: bffd 3a4a 6503 0c46 e4aa aa44 c462 b64a
000003e0: eced fa4b 9a67 974a 5246 f447 3429 5e49
000003f0: e7ac ab47 6bce f24b 344a c048 5d0d bd48
136478.92 0.0033444015 903910.3 232786.05 648691.0 4.3902295e+06 147618.39 14599.0
1.837327e+06 4.5842725e+06 4.4656795e+06 765109.0 9886.488 932.6461 426973.06 1.256273e+06
3774.038 419487.3 0.0 525071.9 1.2735981e+06 139427.95 278606.7 33255.95
0.3151033 1.1068191e+06 1354.8562 372938.1 1.1728298e+06 44.067448 144049.9 85578.0
426152.38 720.288 19681.506 7.369319 2.344815e+06 1.201711e+06 794814.9 1.9061215e+06
10544.925 242.5176 472495.78 1.0104421e+06 1.7873619e+06 24137.732 36225.723 6.2672324e+07
5091.4956 13486.97 1663.9965 3970.6858 1.0938205e+06 233928.34 19404.94 240593.75
121.59512 2.113738e+07 3.4081542e+06 87433.76 730339.7 610.8528 1.4987248e+06 319058.38
341836.7 2831.963 161.31868 169404.28 62517.906 3.4941604e+07 820272.75 9556.356
27300.984 1.1069089e+06 470063.44 42301.777 17836.723 508525.3 89033.18 39876.934
91.19917 6623.824 125361.78 8645.694 347.9009 81032.984 185174.47 24892.645
54130.34 713031.7 30755.51 1.6569784e+06 2.92479e+06 716366.9 801.8621 4.1444845e+06
20124.959 8275.751 986165.44 143.31418 57384.285 551510.8 182457.9 1.0693105e+07
123796.71 263.4136 359057.34 10154.816 2.7361772e+06 925.2949 1.5565778e+06 3.2391255e+06
16167.179 400089.1 239695.94 0.63316244 1.3497639e+06 121779.42 49879.34 30091.662
768954.06 2302.101 4004.5586 171144.36 1.3255234e+06 1.9712175e+06 8.972216 565664.7
6794.1914 1610.863 167.44392 1625.8652 11.888281 1.1969358e+06 111557.63 1174.8796
400.05518 7747.3706 1.0911476e+07 26732.992 606553.75 0.0 47304.98 406698.75
5802.343 177011.83 8.237595e+06 1.2371728e+07 1.3392772e+06 2.2866082e+06 1.9653435e+06 2422.653
6.328233e+06 9.85922e+07 61660.1 50243.277 5.102017e+06 5425.1157 51389.54 7.8292685e+06
2738.4631 2.0779029e+06 21432.906 22.834318 2.9817338e+06 112.0201 4301.1924 300.72427
710.2175 148.61446 1.1794222e+06 119640.375 1.593363e+06 1.0198282e+07 550886.94 0.0043294365
175319.28 0.0 6319.2183 1.1139888e+06 1.0779082e+06 2.1635112e+06 246132.25 99619.266
3014.6965 4.842496e+06 9348.018 198491.98 1.1569839e+06 43072.984 1.331655e+06 384773.7
172206.33 36202.57 4496.266 215247.45 845945.1 815.2944 347.45667 1.210979e+06
768447.5 72259.23 602.6068 3.9172642e+06 13720.244 2623.6558 9.813276e+06 4.0252342e+06
584710.6 47337.08 296806.5 1.0590109e+07 9607.238 2627.1565 245982.14 144722.19
108.22813 5237.2817 276831.28 898060.6 635219.2 8.762725e+06 40.07459 85359.49
478197.34 1.663236e+06 872068.2 1.46905e+06 375613.9 35798.945 3.482928e+06 19181.748
4.213171e+07 13219.464 1605.8374 1687.2938 373499.9 5546.079 123564.27 2434.261
2388.3667 271417.0 1.910999e+06 450083.1 3.0636638e+06 8960.849 1365.3403 5.976418e+06
3.2889816e+07 4.961229e+06 125068.64 909971.25 87897.805 3.182511e+07 393809.62 387178.9
