MRI-Feature-Regression/zyytcuer/checkpoints/epoch=49-step=2350.ckpt (torch, 12092 bytes, 3 tensors)

linear.weight f4 [1, 512]
00000000: 3316 23bd 9773 9b3d e231 1e3d 8f6e d43c
00000010: 2856 09bd d5ef 9ebc 149a 1cbd 9ce9 2c3d
00000020: 5542 4cb8 21a1 91bc 66eb 64bc 0775 01bd
00000030: 7c1e ea3c c14e 66bd b0b9 763c 138d ddbc
00000040: bf8f ad3c 84a2 453d b080 283c e461 84bb
00000050: c955 073d 3374 14bd 8ec4 a73c d20c b2bc
00000060: b8f5 463d c92f 143d 65a1 4fbc bc03 9b3c
00000070: d8ce 16bc 329f e9bc 5461 2abc 6727 223b
00000080: 3c87 13bd 1a70 6e3c 53f4 813c 42d4 8b3c
00000090: f782 bc3c c464 883b f8e5 0dbc 2be2 b8bc
000000a0: 73dd f0bc 2568 623c 3375 f83c ff42 9d3c
000000b0: beba 1fbd 7cd2 083c ddb2 a0bc b326 253d
000000c0: 3405 25bd 2f48 d23c e6df 123b 1aa0 d03b
000000d0: 28e9 cebb d58a d8bc 59df 963c 16a6 2abd
000000e0: 3ac1 323d 2398 d6b9 2403 9c3c 968a a6bc
000000f0: 9862 d8bc cca7 c2bc 2bc5 16bd 54ca 9dbc
00000100: 6ba3 ddba 2367 d43b 3db2 533c 08d8 123d
00000110: 6122 a23a 911b 52bc 53b5 14bd 5e00 5b3c
00000120: 0981 18bc 7df5 3d3d aab7 54bb b78c 40bc
00000130: 672a 34bd 8d4d e4bc 0b98 0fbc 1311 1d3d
00000140: 0b8d d7bb b3d0 6ebb 8304 383d 0ced d4bb
00000150: bfb9 cd3c a731 f3bc 02c0 a6bc e15e f53c
00000160: 0f70 713c 7b97 80bb 0e0b da3b 0f08 15bd
00000170: c071 58bc 320e 1c3d 098b a7bc 0522 babc
00000180: 8965 f5bc 4c55 a43a aed1 fdbc f380 b03b
00000190: 64bf 213d 741e 033c 382a 2d3d 2dc8 f53c
000001a0: e016 2b3d bd9d b5bc 5730 d6bc 38fb f0bb
000001b0: ac28 1e3c 5732 e93c c8dc 4d3c 84f8 afbb
000001c0: c4c7 a23c f996 2a3b 493c 163d 4767 b1bd
000001d0: 7f13 1bbd bc3f 44bc fab6 103d d132 ce3c
000001e0: 0019 d03c e05b 4f3b 246e 483d 1260 8aba
000001f0: 4b8e d0bc afb6 7b3c cd5f ebbc 3b16 fc3b
00000200: b9a2 95bc 5a02 313c 2c77 993c 6637 22bd
00000210: 7bd2 e53a 4962 143d d7b5 54bb 0a82 8b3a
00000220: 66e0 643c f7a4 16bd 89ac ba3a 0720 d8bb
00000230: 1f18 7c3c cb92 303d 9259 7c3c e80b 0ebd
00000240: 73cb 31bb 6b35 7d3c 9a2f cabc 5ecf b5bb
00000250: 9708 14bb dae9 98bc 908a 3bbb 74c0 d5bc
00000260: 36e4 543b 5eae 48bc 9f99 91bc 312c 2b3d
00000270: 129c 6a3b da6b e0bb 0ff5 35bd d963 e83c
00000280: 948d 76bd 66d8 6cbc 6ec0 fa3a 5e34 b63d
00000290: f3fa c73c 6b2f dbbb 39e9 16bd 63ea 97bc
000002a0: 235a bbba ed26 33bc 6641 48bd ca54 c2bc
000002b0: 1988 07bd b2bd 02bd 7f2e 2f3d f782 9f3d
000002c0: eea4 b8bc a2c7 b53c 75c6 123c 3104 65bc
000002d0: c652 10bd 4f21 ffbc 8e56 ec3c 8687 54bc
000002e0: 5842 cbbc 24d9 bf3c 0ecc 92bc 2f4f aebb
000002f0: 4c54 0cbd 4066 a4ba e3e1 a93b 17b4 bc3c
00000300: 6814 adbb a0c1 1c3d bed4 9bbc 47a9 b23c
00000310: a53c cf3a 4a66 2abd fc08 37bc 859e e63c
00000320: aeec bf3c ecfe d8bc 8ed0 28bd f0fd 54bc
00000330: 6339 a83b c3be f73b 319e e83c cff9 013d
00000340: 960d 79bc e535 0e3d 1da0 b53a fba4 64bc
00000350: bfaf 523c 9cef 2dbd 87f6 11bd e5fb b23c
00000360: 3bd0 51bd 6832 4abd c152 d63c 5531 b739
00000370: 91ac 993c dc2e 863c 7dd3 413b 05b1 b4bc
00000380: 678e 153c f890 2c3d 4eb7 c7bc 7159 fcba
00000390: dfc8 52bb f2fd 463c cd20 15bc e5f7 85bc
000003a0: 857b cf3c b57f 3abd 27ab ac3c 7b65 eb3c
000003b0: b0a6 063d 2656 48bc f367 31bd 74a1 0d3c
000003c0: 484c 15bd 18fe f8b9 9ae7 c8bb 8dbe 613c
000003d0: fb6f a0bc da02 223c e4c1 56bd 0b1d fbbc
000003e0: 766e 963b 876b b13c 1cce 5abc 5b81 25bc
000003f0: 438c 1f3d 6c13 3fbc fcdf 193d c18c c33c
-0.039816093 0.075904064 0.03862179 0.025931625 -0.03352943 -0.01940147 -0.038232878 0.042214975
-4.8699167e-05 -0.017777028 -0.013972139 -0.031605747 0.02857899 -0.05622745 0.01505892 -0.027044808
0.021186708 0.04825069 0.010284588 -0.00403999 0.033040795 -0.03624363 0.020479467 -0.021734629
0.04857418 0.036178384 -0.012672757 0.01892268 -0.009204589 -0.028518293 -0.010399181 0.0024742724
-0.03601764 0.014553094 0.015863573 0.017068986 0.023011668 0.004162403 -0.008660786 -0.022568783
-0.02940247 0.013818775 0.030329322 0.019196985 -0.03899645 0.008350965 -0.019616539 0.04032011
-0.040288165 0.025669185 0.0022411286 0.006366742 -0.0063144155 -0.026433388 0.018417047 -0.0416623
0.043641306 -0.0004093061 0.019044466 -0.020329755 -0.0264142 -0.023761652 -0.036809128 -0.019261517
-0.0016909664 0.0064820214 0.012920913 0.035850555 0.0012369865 -0.012823955 -0.036305737 0.013366787
-0.009308108 0.046376694 -0.0032458105 -0.011752299 -0.04398575 -0.02786901 -0.008764277 0.03834636
-0.006578093 -0.0036440312 0.044926178 -0.0064979848 0.025112985 -0.029686762 -0.020355228 0.029952468
0.0147361895 -0.003924308 0.00665415 -0.03638464 -0.013210714 0.038099475 -0.02045204 -0.0227213
-0.029955642 0.0012537627 -0.030983772 0.0053864657 0.039489165 0.008002866 0.04227659 0.030002678
0.041769862 -0.022169942 -0.026146097 -0.0073541664 0.009653252 0.028466387 0.012564845 -0.0053702015
0.019870646 0.0026029928 0.036678586 -0.08662277 -0.03786039 -0.011978086 0.03533075 0.025170716
0.025402546 0.0031640455 0.048933163 -0.0010557196 -0.025458476 0.015363379 -0.028732205 0.0076930798
-0.018266069 0.010803783 0.018733583 -0.039603613 0.0017534042 0.036226545 -0.0032457018 0.0010643613
0.013969516 -0.036778416 0.0014242093 -0.006595615 0.01538661 0.043108743 0.015402215 -0.034679323
-0.0027129322 0.01545463 -0.024680901 -0.0055484017 -0.0022588128 -0.018666197 -0.0028616525 -0.026092745
0.0032484657 -0.012248604 -0.017773448 0.04179019 0.0035798592 -0.0068487944 -0.04442316 0.028367924
-0.060193613 -0.01445589 0.0019130835 0.08896707 0.024411654 -0.0066890023 -0.036843512 -0.018544381
-0.0014293831 -0.010934574 -0.048890494 -0.023722071 -0.033088777 -0.03191919 0.04276895 0.077886514
-0.022539582 0.022189919 0.008958449 -0.01397805 -0.03523519 -0.031143812 0.028849866 -0.012971764
-0.024811909 0.02341897 -0.017919566 -0.005319498 -0.03426008 -0.001254268 0.0051843985 0.023035092
-0.0052819736 0.038270593 -0.019022342 0.021809233 0.001581092 -0.041601457 -0.011171576 0.02815176
0.023428287 -0.026488744 -0.04121452 -0.012999997 0.005133794 0.0075605824 0.028395744 0.031732377
-0.015200993 0.034719367 0.0013856922 -0.01395535 0.012859284 -0.042464837 -0.035635497 0.021848628
-0.051223975 -0.049364477 0.026162507 0.00034941235 0.018759044 0.016379766 0.002957552 -0.022057066
0.00912819 0.04213044 -0.024379399 -0.001925273 -0.0032163186 0.012145506 -0.009102059 -0.016353557
0.025327453 -0.045531947 0.021077706 0.028734913 0.03287381 -0.012227571 -0.043312024 0.00864445
-0.0364497 -0.0004749156 -0.0061311247 0.013778341 -0.019584646 0.009888375 -0.052431002 -0.030653497
0.0045908047 0.021657718 -0.013354804 -0.0101016415 0.038952123 -0.011662345 0.037567124 0.023870828

exp_avg f4 [1, 512]
00000000: e184 4a42 0b01 4cbc 936b fe42 6866 7642
00000010: 8302 d442 f4ac 9a43 3770 c941 8f51 b63f
00000020: 27f7 2a43 0453 4043 517b 6243 7bc8 9042
00000030: 13f5 9141 ea57 1441 8354 8d42 eb09 bd42
00000040: c7e7 ffbd 09d6 bd42 0000 0000 b602 e442
00000050: 467d 0643 ec01 5d42 9e35 a441 1148 2c40
00000060: f5f0 85bd 9e1f a041 8006 6dc0 cc9d d842
00000070: 76b1 fd42 c17d 63bf a515 0ec1 1bcf e641
00000080: ef37 4441 d7a6 25c0 f318 1741 aab0 5bbf
00000090: 3a62 5643 ad94 0b43 2e47 9d42 855f d842
000000a0: b95b a6c0 90e5 0ac0 91cf a442 1754 1743
000000b0: 6be9 2143 1f21 e541 85ef e641 5cf6 7244
000000c0: de48 4f41 398e c941 6e12 0b41 afba 3241
000000d0: 978e 9342 f691 e742 929d b141 ce5b 5f41
000000e0: 2ac6 87bf aa1c 0d44 d6ce a943 91d1 bbc0
000000f0: 88ef b942 c85b 4a40 f976 c842 86a4 ce41
00000100: 1e5c 1c42 64c1 7740 15b2 aebf 4471 1b42
00000110: 0988 c641 c7c3 2544 8fb4 c442 a372 9e41
00000120: a435 3741 1cad 88c1 fd94 aa42 f4a0 0242
00000130: ff82 cb41 c6db d042 3449 b041 57fd 55bf
00000140: c28f 703f 1134 0d41 d30c c1bf 510a 7dc1
00000150: afcf 383f 855a 0042 ccde 8e41 3167 7c41
00000160: 078e c8c1 7a3d 0142 a05d 813d 55f5 8042
00000170: 52af 0543 5613 fe3f 8e2e 4dc0 cb6b 8143
00000180: 4ec8 5f41 722f a741 d341 9e42 f048 e2bf
00000190: b663 3a42 7289 3643 ce34 bf42 4d09 a843
000001a0: 0c1a 7e42 d690 a1bf fc69 1c42 990f 88c1
000001b0: 081d 9343 c562 2fc0 90ec a242 9974 6143
000001c0: d500 1f42 f4a1 5d42 ac3f 7742 d380 423e
000001d0: a871 f042 e681 5b42 cbfa 05c2 4c36 f73d
000001e0: 18ed 1143 fb06 3240 9445 0b41 cade 0742
000001f0: fa2a 1c43 3e95 8043 17f0 75be fbec df41
00000200: bb0d a6c0 3a4a 76c0 e81b c8bf 627b e1bf
00000210: d873 813f 5059 1043 0e50 fb41 462c 9a40
00000220: 66e4 5c3f 5ca4 c3be 7e8b a143 582c 4642
00000230: 1de2 3e43 0000 0000 5016 0242 2206 3b42
00000240: 041a 4441 4181 4542 97ad 9343 70e6 b943
00000250: 81c9 0543 bed6 0d43 39fd b942 08b0 29c0
00000260: d395 e442 54a1 8e44 8d74 c6c1 b3d0 9e41
00000270: c8de ac43 cdb5 e5c0 f2f0 3041 fc79 d043
00000280: d919 3e3e 8275 8842 7ff1 de41 b163 95bf
00000290: 7c84 6243 61b1 403f 6717 9840 b165 d1be
000002a0: 200b 8fbe 07d7 2640 f44f 0c43 da5a 1642
000002b0: a3f4 f242 fd0d 9843 8e5f 1543 6205 e1bc
000002c0: ca8c d141 0000 0000 eef3 7141 47f8 e142
000002d0: bff4 1042 c3f5 df42 801a 7542 a72f 9940
000002e0: a014 ff3f 9b64 8643 e4ba 973f a3fa 2442
000002f0: 443d 0a43 d941 9740 a35b b042 4c0b 6942
00000300: 7f46 a142 6bdc 7141 c3c1 c73e 486d c641
00000310: 18c9 c342 0f85 a740 8a22 ac3f cd5e db42
00000320: 63da 1c43 a9ad 93be 6c7b 0ec0 80ef 8243
00000330: 66c9 4e41 dd84 9bc0 9ffc e043 2a8a 5143
00000340: 2691 5542 2afc 8941 3b6a b442 f00f 8143
00000350: e111 cb41 d49b 7f3f cefa ae42 8326 9a42
00000360: abaf a6bd fc36 3841 8346 8242 8b65 1643
00000370: 5df5 8d40 f16a aa43 446c 96be 69de be41
00000380: f732 7842 e1d9 9442 d69b cd42 bfc8 3a43
00000390: b66d 9742 77fb 44c1 f9f7 0443 7471 3341
000003a0: 2977 5544 5c76 8640 7987 62bd 3d8c 3340
000003b0: 100a 5ac0 5626 c641 2e62 9642 e59b 06c0
000003c0: bf75 c6c0 92c5 0242 9308 5943 f15d e442
000003d0: 00e1 4e43 5de1 ad41 3f74 cb40 c546 8443
000003e0: 5e1e 2c44 49fd 7f43 ad42 00bf 4aaf 8e40
000003f0: 18be 7641 74a8 4244 0c5e 0a43 9c6d 9042
50.629765 -0.012451421 127.210106 61.600006 106.004906 309.3512 25.179792 1.424364
170.96544 192.32428 226.4817 72.39156 18.244665 9.271463 70.66506 94.51937
-0.1249538 94.91804 0.0 114.005295 134.48935 55.251877 20.52618 2.6918986
-0.065400995 20.015438 -3.7035217 108.3082 126.8466 -0.8886376 -8.880284 28.851126
12.263656 -2.588308 9.443591 -0.8581644 214.3837 139.58076 78.63902 108.18656
-5.1986966 -2.1702614 82.4054 151.32848 161.91179 28.641172 28.866953 971.84937
12.95529 25.194445 8.691999 11.170577 73.778496 115.78508 22.201939 13.959913
-1.060735 564.4479 339.6159 -5.869332 92.967834 3.161852 100.23237 25.830334
39.08996 3.8711786 -1.3648096 38.86061 24.816423 663.059 98.35265 19.805975
11.450596 -17.084526 85.29099 32.65718 25.438963 104.429245 22.035744 -0.8358969
0.93969357 8.825212 -1.5082039 -15.815019 0.721919 32.088398 17.858788 15.775193
-25.06935 32.310036 0.06316686 64.479164 133.68484 1.9849651 -3.2059665 258.84213
13.9864025 20.898167 79.12856 -1.7678509 46.597374 182.5369 95.603134 336.07266
63.525436 -1.2622325 39.1035 -17.007616 294.2268 -2.7404034 81.462036 225.45546
39.750813 55.408157 61.81218 0.18994455 120.221985 54.876854 -33.494915 0.12070903
145.92615 2.781676 8.704487 33.967567 156.16788 257.16595 -0.24017368 27.990713
-5.189176 -3.8482804 -1.5633516 -1.7615778 1.0113478 144.34888 31.41409 4.8179045
0.8628601 -0.38211334 323.08978 49.543304 190.88326 0.0 32.52179 46.75599
12.256351 49.376225 295.35617 371.8003 133.78712 141.83884 92.994576 -2.651369
114.292625 1141.0415 -24.80691 19.851904 345.74048 -7.1784425 11.058825 416.953
0.18564548 68.22951 27.867918 -1.1671048 226.51752 0.7527066 4.7528567 -0.40897897
-0.27938175 2.6068742 140.31232 37.588722 121.477806 304.10928 149.37326 -0.027468387
26.193745 0.0 15.122053 112.98492 36.23901 111.98 61.27588 4.787067
1.9928169 268.78598 1.185391 41.244762 138.23932 4.726788 88.17898 58.261032
80.63769 15.116313 0.39015016 24.80336 97.89276 5.2349925 1.344804 109.68516
156.85307 -0.2884343 -2.226283 261.8711 12.92417 -4.8599687 449.9736 209.5397
53.391747 17.248127 90.20748 258.1245 25.38373 0.9984715 87.48985 77.07522
-0.08138975 11.513424 65.13772 150.39665 4.4362016 340.83548 -0.29379475 23.858599
62.04977 74.425545 102.80437 186.78416 75.71428 -12.311393 132.96864 11.2151985
853.8619 4.201948 -0.055304978 2.8054345 -3.4068642 24.768719 75.19176 -2.103265
-6.2018733 32.69294 217.0335 114.18348 206.8789 21.73504 6.35794 264.5529
688.4745 255.9894 -0.5010174 4.4588976 15.42141 778.6321 138.36737 72.21408

exp_avg_sq f4 [1, 512]
00000000: 2d9f 7748 0872 8d3b 5073 c249 448a 9548
00000010: f7fc 8d49 5a62 d84a e49f 9748 365f 9146
00000020: 1933 624a 622b fd4a b269 ef4a 5210 a049
00000030: 4a73 3b46 c6fe 4944 24e4 5b49 6abd 084a
00000040: 8987 8b45 55cd 3949 0000 0000 0927 8049
00000050: 28b1 1c4a 4469 4e48 6203 9848 3f53 2747
00000060: e21b 4240 4aeb e449 2301 0845 f546 0b49
00000070: 3302 004a 6261 dc42 f48a 9148 e9be 0748
00000080: 63d2 3749 5993 9544 c265 cf46 9d9e 3541
00000090: 7a45 814a 3085 0a4a 812e 9d49 db85 474a
000000a0: 4d4b 9f46 03b7 0f44 bcbc 3849 d9cc d949
000000b0: b755 3f4a 5b0b c246 55a9 6c47 2e36 d44c
000000c0: a081 ff45 c63f 4046 570e b145 7be2 8046
000000d0: 0d21 d849 2f71 cd48 2aaf 8b46 c5f4 bb48
000000e0: ee5b c143 2eeb 0e4c 6d06 c84a 292f 1448
000000f0: 0099 b349 b268 2e44 2e20 234a d6f6 fb48
00000100: dce5 1449 f0a6 9845 841c 9f43 8eb6 9048
00000110: 9bc7 0c48 b043 6c4c 629f a949 a863 8f46
00000120: 51be ec46 fc29 e749 1f3d 5449 c570 8f47
00000130: e395 c246 e1ae 3f49 e5c4 2048 48cf 7947
00000140: 2ebf 2843 eebf 8046 1009 3d48 adec 8446
00000150: a989 fc43 cc15 f747 800b ab48 4b10 2347
00000160: f2e6 a247 1b5d ae49 a2d1 3847 a2d8 224a
00000170: 5826 a04a d087 8e49 535b 9d44 c22b e04a
00000180: 3c66 be46 a841 1146 c618 d149 0955 9c43
00000190: d55d d147 0b3d 7d49 7920 a148 2976 8b4b
000001a0: f74b 6e48 2bd2 ac43 45ff 1b49 9b7f 9146
000001b0: ec23 8d4a f313 bf45 af89 2a4a f506 a24a
000001c0: bf5c 0f47 efc6 2349 a322 b248 b830 f83f
000001d0: ee0b 174a aeb4 0848 f3bf c147 07e1 3847
000001e0: 8f73 a849 04ad 8045 eb59 1f46 9c94 8048
000001f0: c2bb 164a fbcf 514a 322b 4641 cad5 6549
00000200: 7640 3846 7147 8845 d8d7 b343 4ba1 6c45
00000210: e1a4 ee40 ce42 e049 178f 0d48 a6b5 a244
00000220: d0ef 3944 6335 2c46 3b65 964b eef5 0547
00000230: 34d3 8f49 0000 0000 8592 fa47 4d51 2249
00000240: c58d 8d46 d4e9 a048 04a4 584b 48bf a44b
00000250: 2341 1b4a 4838 7b4a fcd9 554a a91f 6845
00000260: 2d18 344b f788 284d c484 fb47 fa48 d847
00000270: d51d 084b 83a9 dd45 a149 d747 ad89 624b
00000280: 331f aa45 1c10 3c4a fa03 5947 a225 7642
00000290: b797 a24a 953d fa42 8f8a 2846 88ad 9144
000002a0: cd69 1245 3e09 2443 28f7 074a c970 4548
000002b0: 1853 294a 225e 864b 7bd2 7849 7623 023c
000002c0: 0899 8b48 0000 0000 f77c 2146 04ad f549
000002d0: ae69 ca49 db79 704a 91aa af48 1177 2048
000002e0: 212d 6545 69d1 054b 01cf bc45 95d3 8948
000002f0: 4f25 ff49 6aef db47 5269 0f4a 784f 2349
00000300: 6d5f 8d48 23e1 5447 73a8 3746 14f6 a248
00000310: 5248 b049 6ed3 af44 f142 a843 1b83 fd49
00000320: bdc1 a549 3ae7 8547 997c 1d45 ee8b c44a
00000330: 5a00 d446 8ccf 9045 ce36 884b 44cb d54a
00000340: 3c38 5d49 6665 b347 9a63 df48 eacf 914b
00000350: 0dca b946 8e47 1845 15e5 cf48 1723 4b48
00000360: 8221 d042 2db7 c045 db16 a848 b54f c849
00000370: 3320 8849 090b 7a4b 411b a942 058e 0d48
00000380: 31d2 5749 d41c 2a4a dafa b649 0e1a 214a
00000390: 58e4 1f49 5081 6f47 bf86 bf4a 22f1 0647
000003a0: 4f9e 904c a445 8f46 81d2 8c45 d3f1 df44
000003b0: 562a 2449 4f20 e745 12b8 2848 6d40 2845
000003c0: 23ea 1f46 b109 0049 0ae1 4a4a 209d 3c49
000003d0: 0802 ad4a 3cae 2746 a42b 8c45 6ed3 1d4b
000003e0: 0e7c 5f4c a384 074b cfbb 5d48 3fb5 b449
000003f0: e516 2c48 ab90 584c 7eb8 3149 6c57 0849
253564.7 0.004316572 1.592938e+06 306258.12 1.1631669e+06 7.090477e+06 310527.12 18607.605
3.7060542e+06 8.295857e+06 7.845081e+06 1.3112422e+06 11996.822 807.98083 900674.25 2.2403465e+06
4464.942 761045.3 0.0 1.0498251e+06 2.567242e+06 211365.06 311323.06 42835.246
3.0329518 1.8753052e+06 2176.071 570479.3 2.0972928e+06 110.1902 298071.62 139003.64
752934.2 1196.6046 26546.879 11.351224 4.235965e+06 2.269516e+06 1.2876321e+06 3.2689828e+06
20389.65 574.85956 756683.75 1.7842191e+06 3.1348298e+06 24837.678 60585.332 1.1126002e+08
8176.203 12303.943 5665.7925 16497.24 1.7705296e+06 420745.47 17879.582 384934.16
386.7182 3.746527e+07 6.5544225e+06 151740.64 1.471264e+06 697.63586 2.6726515e+06 516022.7
609885.75 4884.867 318.22278 296372.44 144158.42 6.1935296e+07 1.3895482e+06 18353.828
30303.158 1.8936955e+06 869329.94 73441.54 24906.943 785134.06 164627.58 63951.28
168.7468 16479.965 193572.25 17014.338 505.07547 126507.59 350300.0 41744.293
83405.89 1.4283874e+06 47313.633 2.6680725e+06 5.247788e+06 1.16761e+06 1258.8539 7.345633e+06
24371.117 9296.414 1.7129208e+06 312.66434 107195.664 1.0372647e+06 329987.78 1.8279506e+07
244015.86 345.64194 638964.3 18623.803 4.624886e+06 6114.4937 2.7940918e+06 5.3093065e+06
36700.746 670830.94 364821.1 1.9389868 2.4747475e+06 139986.72 99199.9 47329.027
1.3799539e+06 4117.627 10198.4795 263332.88 2.4696165e+06 3.4375668e+06 12.385546 941404.6
11792.115 4360.93 359.68628 3786.0808 7.457627 1.8371458e+06 144956.36 1301.6765
743.7471 11021.347 1.971263e+07 34293.93 1.1782145e+06 0.0 128293.04 664852.8
18118.885 329550.62 1.4197764e+07 2.1593744e+07 2.5436888e+06 4.115986e+06 3.503743e+06 3713.9788
1.1802669e+07 1.7672178e+08 128777.53 110737.95 8.920533e+06 7093.189 110227.26 1.4846381e+07
5443.9 3.081223e+06 55555.977 61.53675 5.3278355e+06 125.12028 10786.64 1165.4229
2342.6125 164.0361 2.227658e+06 202179.14 2.774214e+06 1.7611844e+07 1.0191757e+06 0.007943025
285896.25 0.0 10335.241 2.0125765e+06 1.6581658e+06 3.9399588e+06 359764.53 164316.27
3666.8206 8.769897e+06 6041.8755 282268.66 2.0901539e+06 112606.83 2.3496525e+06 668919.5
289531.4 54497.137 11754.112 333744.62 1.4441062e+06 1406.6072 336.52298 2.0767714e+06
1.3578796e+06 68558.45 2519.7874 6.440439e+06 27136.176 4633.9434 1.7853852e+07 7.005602e+06
906115.75 91850.8 457500.8 1.9111892e+07 23781.025 2436.4722 425768.66 208012.36
104.065445 6166.897 344246.84 1.6409506e+06 1.1151424e+06 1.6386825e+07 84.55323 144952.08
884003.06 2.787125e+06 1.4989712e+06 2.6394915e+06 654917.5 61313.312 6.2759355e+06 34545.133
7.582169e+07 18338.82 4506.313 1791.557 672421.4 7396.0386 172768.28 2692.0266
10234.534 524443.06 3.3239705e+06 772562.0 5.669124e+06 10731.559 4485.455 1.0343278e+07
5.8585144e+07 8.881315e+06 227055.23 1.4803599e+06 176219.58 5.6771244e+07 727943.9 558454.75
